checkpoint.pth.tar (torch_old, 539500 bytes, 58 tensors)

embedding.weight f4 [64, 85]
000000 da a0 38 bc c9 99 70 bd bc ce cb bc 9a d0 80 b9
       -0.011268819 -0.05874041 -0.024878852 -0.00024569483
000010 cf 88 38 bd 5f 68 45 bd 05 29 51 bd aa 29 c8 bd
       -0.045052346 -0.04819524 -0.05106451 -0.09773572
000020 0a 74 d5 bd 78 fd c3 39 ff 37 91 bd ea 48 31 bd
       -0.10422523 0.00037382147 -0.070907585 -0.043282427
000030 5a 0c ae bd 62 b9 ca 3c 83 b0 d1 bd f6 fe e0 bb
       -0.084984496 0.0247466 -0.10238745 -0.006866331
000040 7a 85 a0 3d 25 ee 2b 3c 13 19 bb bd fb 90 d0 3d
       0.07837959 0.01049379 -0.09135642 0.10183903
000050 59 03 bf 3d af ed 55 bd d8 22 c7 bd 4a 0c cf 3c
       0.093268104 -0.052228626 -0.09723443 0.025274415
000060 0e 7c cf bd bb 9d a6 3d 7e 33 00 bd a6 d0 80 bd
       -0.101310834 0.081355534 -0.031299107 -0.062897965
000070 ff 99 41 bd 87 4e 60 bd 99 11 23 bd 93 e6 4d bd
       -0.047266003 -0.05476239 -0.039811704 -0.05026872
000080 cf 58 49 bd 90 64 1f 3c d1 6b 69 3c 8c e6 ab bd
       -0.04915696 0.009728566 0.014246897 -0.08393583
000090 f1 c2 3b 3c 1e 08 b8 bd 1b 6b ad bd 25 ad 90 3d
       0.011460052 -0.08985923 -0.08467694 0.07064275
0000a0 bd c2 b9 3d 03 9a 43 bd af 6c e5 bc c9 10 ab 3d
       0.090703465 -0.0477543 -0.028005926 0.08352811
0000b0 da aa 54 3d 32 c4 a0 bd a6 8c 13 bd 18 96 91 3d
       0.05192075 -0.07849921 -0.036022805 0.07108706
0000c0 7f 47 78 bd 65 93 75 3d 15 f5 df bd 5b 73 6e 3d
       -0.06061506 0.05995502 -0.109354176 0.05821548
0000d0 a2 79 d2 bb 6c 3c ea 3b 63 9f c9 3b 71 ce 8c bd
       -0.006423191 0.007148316 0.0061530336 -0.06875313
0000e0 42 a0 ed 3c e1 6e fd 3c 30 a2 9f bd c6 65 2a bd
       0.029007081 0.03093666 -0.07794607 -0.041600965
0000f0 bf 48 2b bd ac 1c 66 3d f1 e1 48 bd d4 87 b7 3d
       -0.041817423 0.056179687 -0.0490436 0.08961454
000100 9f 7e 5c 3d 9b b3 a2 3d de b4 9e 3d 71 87 9a 3d
       0.053831693 0.07944413 0.077493414 0.07545365
000110 ff a2 25 3d 69 f3 60 3d 2d 0d ac bc 7a 23 c7 bd
       0.04043865 0.054919634 -0.021002376 -0.097235635
000120 01 45 3d bd 94 8c 0b bc 2d f1 7b 3b bd f1 8b 3d
       -0.046208385 -0.008517403 0.0038443313 0.06833217
000130 34 b7 54 bd 62 9b 79 3d 7a 24 45 3d 24 ee 47 bd
       -0.05193253 0.0609392 0.04813049 -0.048811093
000140 42 d3 a8 bd 9f c3 d7 3d 73 cb cc 3d f7 ae 04 bd
       -0.08243419 0.10535359 0.09999742 -0.032393422
000150 ad 45 61 bd 6e 20 83 3c 87 b1 aa 3d fc 7b a8 bc
       -0.05499809 0.016006675 0.08334642 -0.020566933
000160 56 9b 9a bc ca 00 95 bd 9d 78 90 bd be 0e 91 bc
       -0.018872898 -0.07275541 -0.07054255 -0.017707225
000170 62 34 4b 3a 62 62 db bd 11 86 87 3d e3 fc b9 3b
       0.0007751641 -0.107121244 0.06617368 0.0056758984
000180 53 6e 85 bd 93 59 83 3d 1a 6e 90 bd 60 c8 94 bd
       -0.06515183 0.06413569 -0.0705225 -0.07264781
000190 bb c8 69 3d 17 53 f6 3c bf 0b 8a 3b b6 80 c3 bd
       0.057076197 0.030068917 0.004212826 -0.09546034
0001a0 b6 cf a7 bd f2 59 9e bd 47 5b b3 3d 08 9d 1b bd
       -0.081939146 -0.077319995 0.08757644 -0.037991554
0001b0 c8 af d5 3d d7 cf 62 bd f3 f3 a5 3d 7f b0 ee bc
       0.10433918 -0.055373993 0.0810317 -0.029136894
0001c0 b5 2c aa 3d 3a a1 99 bd d3 bb 19 bd eb 3e 91 3d
       0.083093084 -0.07501455 -0.03753264 0.07092079
0001d0 3e 2c 04 3d 85 4e c9 3d 9e 37 25 3d 96 da 30 3d
       0.032268755 0.098294295 0.040336244 0.04317721
0001e0 80 80 bc bc 32 f0 6c bd 8a 88 01 3d 45 4f 91 bd
       -0.023010492 -0.057846256 0.031624354 -0.070951976
0001f0 33 41 b1 3d 5e fc d8 3c 15 73 db bc a8 0e 42 3d
       0.08655014 0.026487526 -0.026788274 0.04737726
000200 ec 35 1d 3c d0 de d1 3d 80 d1 58 3a 75 7c d2 bd
       0.0095953755 0.10247576 0.0008270964 -0.102776445
000210 6a 57 dd bd 2c 45 46 bd 50 df 56 3d af 54 1a 3c
       -0.108076885 -0.04840581 0.05245906 0.009419604
000220 ca ee 5f bd a0 4e 42 3c d3 04 81 3c 72 ef d7 3d
       -0.054671086 0.011859566 0.01574937 0.105437174
000230 e5 f6 03 3c c5 ab d0 bd 8d d4 a4 3d 06 d3 16 3d
       0.00805447 -0.101890124 0.08048353 0.03682234
000240 9a b4 24 bd eb e7 95 bd 85 02 5b 3d bf 36 47 bd
       -0.040211298 -0.073196255 0.0534692 -0.048636194
000250 ea 0e 6f 3d 02 9f d0 bc 48 0a 88 3d b7 cb 94 3c
       0.058363833 -0.025466446 0.06642586 0.018163545
000260 eb f5 b9 3d 12 9d 9c 3d c8 3d a1 bd b9 62 0d 3d
       0.09080108 0.07647146 -0.07873112 0.034517977
000270 f3 cb c8 bc 72 8f 85 bd 23 61 7c 3c 18 59 29 3d
       -0.024511313 -0.06521501 0.015404019 0.041344732
000280 cf 0e a6 3d 34 a2 ad bd 94 4f 9d 3c 6d 39 55 bb
       0.08108293 -0.084782034 0.019202985 -0.003253545
000290 c4 c2 79 3d aa 3a 84 3d 10 cd e9 3b c1 86 41 bc
       0.06097676 0.06456502 0.007135041 -0.011811913
0002a0 61 d2 84 3d 14 94 db bc f1 ef a3 3d 21 b5 85 3d
       0.06485439 -0.026804008 0.080047496 0.06528688
0002b0 65 0f a0 3d a4 af e8 3c 4d 15 be 3d a6 9e bd 3d
       0.07815436 0.028404064 0.092814066 0.092587754
0002c0 54 69 22 3d 66 d2 df 3c 3f 4e 7c bd 7f 75 6f bd
       0.03965123 0.027322005 -0.06159806 -0.058461662
0002d0 9e c1 ef 3c 8a 0a ed bc 5f 3a 8f 3d 7b a0 86 ba
       0.029267129 -0.02893569 0.06993555 -0.0010271216
0002e0 b3 cd 84 3d 92 6e c9 bd f3 fb 92 bd 89 75 59 bb
       0.064845465 -0.09835543 -0.07176962 -0.0033181629
0002f0 ad 66 da bd 80 8a 06 ba 00 df 98 ba 0d 2a a4 3d
       -0.10664115 -0.00051323324 -0.0011663139 0.08015833
000300 d9 69 8f bd c0 8c da 3d ae d4 a9 3d 27 31 62 3c
       -0.07002611 0.10671377 0.082925186 0.013805664
000310 29 88 a3 bd fc 6f e8 3c 88 06 e4 bc 65 8d 86 bd
       -0.07984955 0.02837371 -0.027835146 -0.065699376
000320 65 ec 87 3d e7 d6 68 bd 12 ba 2d bd 2b e3 d5 bd
       0.066368856 -0.05684557 -0.04241378 -0.104437195
000330 27 14 4a 3d 90 d7 9f 3b 83 3d b0 bd 58 52 55 3c
       0.049335625 0.004877992 -0.086054824 0.013020121
000340 1c 7c d0 bc 30 a5 ed 3b e5 53 f6 bc 77 dc bd bc
       -0.025449805 0.007252358 -0.0300693 -0.023176415
000350 70 73 64 bc e0 8c 52 3d 91 8f 6d 3d 89 49 b6 3d
       -0.013943538 0.05140388 0.057998244 0.089007445
000360 c7 83 57 bd fa f8 dc bd 0d 8d e1 bc 2d 7d e7 bc
       -0.052615907 -0.10789676 -0.027533079 -0.02825793
000370 e6 16 6e 38 c5 dc 81 bd fd 1d 20 3d ae 3d 39 bb
       5.6764948e-05 -0.063409366 0.0390911 -0.0028265524
000380 73 fb d0 3b 06 1c 6d 3d 21 a4 d3 bd a9 e8 d5 bd
       0.0063776313 0.057888053 -0.103340395 -0.10444767
000390 5a c5 54 3d 1d 19 a2 3d 38 cd 6d bd 48 ed c9 bb
       0.05194602 0.07914946 -0.05805704 -0.0061623193
0003a0 6b cd ad 3a 9f 53 30 3d af 59 9e bc 2e 14 82 bd
       0.0013260072 0.043048497 -0.019329874 -0.06351505
0003b0 11 9e a4 bd dd 40 87 3c 84 1e 6a 3d 78 d6 ff bc
       -0.08037961 0.016510421 0.05715801 -0.031230196
0003c0 c1 20 46 3d 55 64 52 bd 30 1a 36 3b 1a bc 36 3d
       0.04837108 -0.051365215 0.0027786605 0.04461298
0003d0 9e b3 2e 3d 56 ce 31 3c 01 0a 77 3d dc 20 aa bd
       0.042651765 0.010852417 0.060312275 -0.08307049
0003e0 f6 40 e0 bc a0 2f ff bc b3 3c bf bd 56 4d f9 3b
       -0.027374726 -0.031150639 -0.09337749 0.007608096
0003f0 d9 6e c6 3c 79 e5 b7 bd d0 24 93 bc 74 47 cd 3d
       0.024222778 -0.08979315 -0.01796189 0.10023394

embedding.bias f4 [64]
000000 af a9 81 3d 45 af df 3b 82 80 28 3d 60 29 02 3d
       0.06331193 0.0068263137 0.04113818 0.03177774
000010 44 2c d0 3d 23 7c 9a bd 43 13 19 3d b6 be 2e 3d
       0.10164693 -0.075432085 0.037371885 0.042662345
000020 e2 a7 a8 bd 1f bd 2a 3c 03 87 80 3d e3 bc 0e bd
       -0.08235146 0.010421067 0.062757514 -0.034848105
000030 1e 4f 29 3c 10 73 1e bd 40 3e 0b 3c 9f c3 96 bd
       0.010333804 -0.03868395 0.008498728 -0.073615305
000040 00 b2 01 bd 49 02 fb 3c 0d 64 e4 3b 59 a8 80 3d
       -0.031663895 0.030640738 0.006969935 0.0628211
000050 a3 3d 7a 3d ea ae bb bc ed 09 3f 3d f9 26 d3 bc
       0.061093938 -0.022910554 0.046640325 -0.02577542
000060 d6 08 15 3d 1b e1 41 3d 7e 78 c7 bd f3 b8 8d bd
       0.03638538 0.047333818 -0.09739779 -0.06920042
000070 23 c3 99 3d 72 b2 d2 3d 65 c7 02 bd a4 62 20 bc
       0.075079225 0.10287942 -0.03192844 -0.009789143
000080 de c8 81 bd 99 d0 dc bd 85 2e 91 bc 35 e1 27 bd
       -0.063371405 -0.10781974 -0.017722378 -0.04098626
000090 ac 42 ac 3d 13 76 d7 bd 9d b1 44 bd c0 65 32 3c
       0.08411154 -0.10520568 -0.048020948 0.010888517
0000a0 00 e4 a3 bc f3 52 01 bd 1e b1 d7 3d 8c 0d 29 bd
       -0.02000618 -0.031573247 0.10531829 -0.041272685
0000b0 e2 8f d7 3d b8 6c 10 bd 4c 34 bb b7 ef b4 83 bd
       0.1052549 -0.035259932 -2.231649e-05 -0.06430995
0000c0 17 8a bd 3d c9 6b d7 bd 81 d2 30 3d 39 ad 6f 3d
       0.09254854 -0.10518605 0.043169502 0.058514807
0000d0 cc fb 19 3d 29 0d d1 3d af 47 b2 3d 8a b1 38 3c
       0.037593648 0.10207588 0.08705079 0.011272797
0000e0 d9 c5 45 bd 99 12 a6 3d c3 b6 6d 3d 5a ce 40 bd
       -0.048284385 0.08109016 0.058035623 -0.047071792
0000f0 91 d2 6a bd ff eb 7e 3d 08 66 72 3d 94 9a 81 3d
       -0.057329718 0.062236782 0.059179336 0.063283116

graphs.0.pass_msg.weight f4 [128, 130]
000000 b3 e6 af bc 52 94 0d 3d 36 82 8f 3c 3a 57 25 3d
       -0.02147231 0.034565277 0.017518144 0.04036639
000010 ac 35 2b 3d 83 d3 32 bc 51 38 9f 3d 4c ba 06 bd
       0.041799232 -0.010914686 0.077744134 -0.03289251
000020 d1 cd 73 3d e5 44 a9 3d 13 07 9d 3d 56 c9 a9 3c
       0.059522454 0.08265094 0.07667365 0.020725887
000030 27 aa 4c 3d d2 c4 a3 bd ee 80 8c 3d 92 96 a6 3d
       0.049966957 -0.07996525 0.06860529 0.08134188
000040 dd dc ae bd 89 ab cf 3c 22 86 05 bd 5d 9f f5 bc
       -0.0853822 0.025350349 -0.032598622 -0.029983217
000050 17 2b 71 3d ad 21 6e bb 38 43 9b bd d1 e6 92 3c
       0.058878984 -0.003633599 -0.0758118 0.017932327
000060 5b 2f e5 bc e5 d2 c8 bc 24 4d 03 bd 6f af 13 3d
       -0.027976682 -0.024514625 -0.03205599 0.03605598
000070 a8 3b 70 bb fa 02 4e bd bd 2e 66 3d 7b 4f 5c bd
       -0.0036656652 -0.050295807 0.056196917 -0.053786736
000080 14 2b 8e 3c 40 70 a5 3d 6f 13 2e 3b 9d ed 86 bd
       0.017354526 0.080780506 0.0026561876 -0.0658829
000090 25 b1 5c bd 7f ce ae bd a6 39 7d bc 05 f0 88 bd
       -0.053879876 -0.0853548 -0.015455639 -0.06686405
0000a0 4d 4c f9 bc b2 17 99 bd 3c c6 76 bd cb 2a 6e bd
       -0.03043189 -0.07475223 -0.060247645 -0.05814628
0000b0 08 e5 a2 bd b7 1a 8b 3d b7 e8 62 3c f6 8f 98 3c
       -0.079538405 0.06792205 0.013849429 0.018623333
0000c0 53 6c be 3c c4 8e e4 bc 1d e9 b5 3b 4a a1 d1 b9
       0.023245012 -0.027900107 0.005551471 -0.00039983756
0000d0 c7 cd a6 3d 4e 5c 5a 3d aa 0f 5d 3d e8 3b 1b bd
       0.08144718 0.053310685 0.053970017 -0.037898928
0000e0 19 63 f1 bc f2 ad 56 3d 19 cb 8c 3b be 83 91 3c
       -0.029466199 0.05241198 0.004296672 0.017763015
0000f0 32 01 97 3c e6 05 73 bd 4c 05 c0 bb 7e 63 68 3d
       0.018433187 -0.059331797 -0.0058600064 0.05673551
000100 b3 77 0b bc 86 88 8e 3b 0e 4f a0 3d 9a b4 63 3d
       -0.008512425 0.004349771 0.078275785 0.055592157
000110 cc f2 cb 3c 6d 16 ac 3d 15 c3 37 bb 57 13 32 bd
       0.024896048 0.08402715 -0.0028039862 -0.043475475
000120 9c 52 94 3d a6 02 e1 bc 85 24 09 bd 25 33 59 3d
       0.07242319 -0.027467083 -0.033482093 0.05302729
000130 3f 3a 5f bd 03 f2 f2 bc 9c d0 a9 bd 90 85 28 3d
       -0.054498907 -0.029656416 -0.08291742 0.041143
000140 83 67 25 3d b0 cf 37 bd 21 8f 8e 3d ff 9a ac 3d
       0.04038192 -0.0448758 0.069608934 0.08428001
000150 b4 12 67 3d 96 fb 8f bd 8e 58 9a 3d 74 ba 06 bd
       0.05641432 -0.07030408 0.07536422 -0.03289266
000160 46 15 8a bd 41 62 4b 3d 29 fb a5 bd d0 00 0d 3d
       -0.06742339 0.04965425 -0.081045456 0.034424603
000170 db 85 07 3d 02 be 23 3c 04 cd 92 3d 90 00 58 3c
       0.03308664 0.009994032 0.0716801 0.013183728
000180 75 0a 29 3d 91 43 e9 bc 65 b6 1b 3d 3f a5 92 bc
       0.04126974 -0.028474601 0.03801574 -0.017901061
000190 3a dc 6b bc de 28 41 bd 5c 37 1a 3d 83 24 8a 3d
       -0.014395768 -0.047158115 0.03765045 0.06745245
0001a0 09 e1 86 bd 6a cc 6b bd 91 93 53 3d cf ed ac bd
       -0.06585891 -0.05756799 0.051654402 -0.08443796
0001b0 bc a6 e3 bc a8 38 6a bd a5 69 21 3d e8 27 9a 3d
       -0.027789466 -0.057182938 0.03940739 0.07527143
0001c0 23 33 9a ba 5e 1a 98 3a ff be 0c 3d 6a 8b a9 3c
       -0.0011764508 0.0011604538 0.034361836 0.02069636
0001d0 18 75 7b 3c c2 9e 30 bd d1 71 36 3d e9 0f a6 bd
       0.015347742 -0.043120153 0.044542138 -0.08108503
0001e0 2b 05 ff 3c 2b 0a f4 bc d2 94 96 bd 24 0e 81 3c
       0.031130394 -0.029790005 -0.07352604 0.015753813
0001f0 f9 88 83 3c 5e 8a 79 bd 8b 30 95 3d d9 4e 53 b8
       0.016056525 -0.060922973 0.072846495 -5.0379753e-05
000200 04 8b 8b bc 7c b4 52 3d d4 96 d6 bc 21 56 96 3d
       -0.017034061 0.051441655 -0.026194967 0.073406465
000210 8f a2 79 3a 9b 2d ab 3d 00 97 02 3d 77 da 0c 3d
       0.00095228193 0.08358308 0.031882286 0.03438803
000220 35 8d 81 bd 9d f9 a2 3d a4 ba 77 bd 56 6c a8 3c
       -0.06325761 0.07957766 -0.06048073 0.020559471
000230 d5 e1 0f bd f1 41 93 3d e2 98 e4 bb 12 7e 82 bd
       -0.03512748 0.07190312 -0.006976233 -0.06371702
000240 15 de 84 3d e6 48 a7 bc fb fb a4 3c 10 60 fa 3c
       0.06487671 -0.020420503 0.020139685 0.030563384
000250 e7 e9 45 3d f4 99 87 3d 64 9f 36 bd 1d f9 a6 bd
       0.04831877 0.06621161 -0.0445856 -0.08152983
000260 97 56 6b 3d 0b 0b 90 3c ae c4 a3 3d 5a d4 1c bc
       0.057455625 0.01758339 0.07996498 -0.009572113
000270 18 cc 03 3c 1c 13 1f bd db ee 28 3d 7d 0b 81 bd
       0.008044265 -0.038836583 0.041243415 -0.06301019
000280 11 a7 3b bd d7 db 37 3d ea e1 a4 bd e3 03 9e 3d
       -0.045813624 0.04488739 -0.08050902 0.07715585
000290 7d 0a ac bc cd df 98 3d 09 c0 55 bc ec 71 49 3d
       -0.021001095 0.074645616 -0.013046273 0.04918091
0002a0 34 b5 91 3d 20 33 0a bb fb 0d 24 bd f5 d0 4b 3b
       0.0711464 -0.0021087602 -0.040052395 0.003109989
0002b0 bc 90 b1 3d a7 ca 11 3d 7e 6f ad 3d 9d 2a a8 bd
       0.08670184 0.035593655 0.08468531 -0.08211253
0002c0 bb c5 2a 3d f0 f3 10 3d 7c dc 8e 3d fc ab a2 bd
       0.041692477 0.035388887 0.06975648 -0.0794296
0002d0 ee 1b a2 bc 9f 51 a6 bc 75 da 2b bc 5b 59 b1 3c
       -0.019788709 -0.020302592 -0.010489096 0.021649053
0002e0 55 de 6d bd 84 37 44 3d a6 e4 86 bd 7a 59 96 3c
       -0.05807336 0.047904506 -0.0658658 0.018353213
0002f0 d2 bd 99 3d 13 4d 0b 3d 70 65 ba bc c4 ec 1d 3d
       0.075069085 0.03400905 -0.022753447 0.038555875
000300 61 f2 ad bd e9 a1 eb bc aa 89 44 3d 58 4c 67 bc
       -0.08493496 -0.028763728 0.04798285 -0.014117323
000310 c8 6e 89 bd 5a da af 3d d7 b3 1d 3d 37 1c b4 3b
       -0.06710583 0.08586569 0.038501587 0.0054965275
000320 50 1a a0 3d 08 a8 0a 3d 6f 05 b8 bc 88 b1 34 3d
       0.07817519 0.033851653 -0.022463528 0.04411462
000330 01 2a 9c 3d 54 99 01 3d 7d 11 32 3d 9d 08 4c bd
       0.07625199 0.031640366 0.04347371 -0.0498129
000340 34 16 33 bd 8d 7d 0c 3d 19 3e d9 bc a2 9b 90 bc
       -0.043722346 0.034299422 -0.026518868 -0.017652337
000350 b4 71 0f 3d ce c1 5d 3d 10 58 5a bd 17 50 8a bc
       0.035020545 0.054139905 -0.05330664 -0.016883893
000360 b9 1c 11 bd 0d 54 8b 3d 0a 5e 5a 3d d9 6e f4 3c
       -0.035427783 0.06803141 0.05331234 0.029838013
000370 52 4f 69 3d 87 4b 01 3c f4 a4 74 bd f4 b4 37 3d
       0.05696041 0.007891542 -0.059727624 0.044850305
000380 d7 39 54 bd 68 ab 14 bd 62 e9 0c bd ca 33 3d 3d
       -0.051812973 -0.03629628 -0.03440226 0.046191968
000390 cb 99 8b bd 90 94 90 3c 0c 2b 36 bd 37 97 5c 3d
       -0.06816443 0.017648965 -0.044474646 0.053855147
0003a0 96 ac 96 bd 48 bf d3 3c 21 06 42 bd e1 a2 84 3d
       -0.07357137 0.025848046 -0.047369126 0.06476379
0003b0 59 42 a2 bd bc 23 51 bc f5 6e 50 3d e2 2e c6 bb
       -0.07922811 -0.012764867 0.050887067 -0.0060480693
0003c0 2c b9 a8 3d 9f fd aa bd a5 f5 86 3d 55 24 85 bd
       0.08238444 -0.08349156 0.06589822 -0.065010704
0003d0 4d ad 11 bd df 5b 1f 3d bc 3e 9d bd 7e c7 b2 3d
       -0.035565663 0.038905974 -0.07677981 0.08729456
0003e0 a0 10 8a 3d 29 44 aa bd 18 25 71 3d 81 9c 7f 3d
       0.06741452 -0.08313782 0.058873266 0.062405113
0003f0 9b b3 ae 3c cb 16 1b 3c 96 b1 72 bd 5d fe 3f bd
       0.021325877 0.0094658835 -0.05925139 -0.04687344

graphs.0.pass_msg.bias f4 [128]
000000 07 bd 94 3d 6e d8 88 bd 82 f0 53 bd b3 74 91 3d
       0.072626166 -0.06681906 -0.051743038 0.07102337
000010 f3 4a aa 3d c0 3a 9f bb 94 9f 1e bd f0 6f 81 3b
       0.08315077 -0.0048592985 -0.038726404 0.0039501116
000020 bf 09 9d bd 12 7f 73 3d cd d7 85 bd 00 f5 00 3c
       -0.076678745 0.059447356 -0.06535301 0.007870913
000030 8f 88 ab 3d a8 c0 84 bc a0 9e 30 bc 60 d7 21 bd
       0.08375656 -0.016205147 -0.010780007 -0.03951204
000040 ba d7 67 3d c0 65 db bb 58 56 b6 3c 05 a8 4f bd
       0.056602217 -0.006695479 0.022257969 -0.050697345
000050 4c 80 f8 3c d0 c6 6a bc 2c 02 18 3d f3 2f a5 3d
       0.030334614 -0.014329627 0.037111446 0.08065786
000060 9c 12 be 3c f5 2a a3 bd 40 ef b0 bc b0 4b 98 bb
       0.023202233 -0.07967178 -0.021598458 -0.0046476945
000070 8a d5 e6 bc 68 67 aa bd 7e 7d 58 bd ee 8b 70 bd
       -0.028177995 -0.083205044 -0.052854054 -0.058727197
000080 c0 1f ed bc c8 12 9e 3c c7 bc 91 3d 40 e7 0e bd
       -0.028945804 0.019296065 0.071160845 -0.034888506
000090 91 40 82 bd 0b 81 96 3d 80 89 32 3c b0 f4 78 3c
       -0.06359971 0.07348832 0.01089704 0.015195057
0000a0 9a 81 13 bd 34 9a 52 bd 58 ad 78 bd 78 d0 71 3c
       -0.03601227 -0.05141659 -0.06071219 0.0147591755
0000b0 a8 ca 89 bc 5f b7 a3 bd 56 8a 52 3d 8f 00 92 3d
       -0.016820267 -0.0799396 0.05140146 0.07129013
0000c0 84 9d ca bc 2e 25 55 3d de d0 64 3d ec e0 eb 3c
       -0.024733312 0.05203741 0.055863254 0.028793775
0000d0 23 ce a5 3d c9 5d 84 3d 6a 6b 32 3d 94 5c 94 bd
       0.08095958 0.064632006 0.04355947 -0.072442204
0000e0 64 76 a1 3c 44 fe 8e bd 82 a8 ae bd 8c 88 82 bd
       0.019709773 -0.06982091 -0.08528234 -0.063737005
0000f0 f8 dd 9b 3c d5 b0 90 3d 06 bb 65 3d bc 03 59 bd
       0.019026741 0.07064978 0.056086563 -0.052982077
000100 6c 3e aa 3c 5d a5 88 3d 12 b1 77 3d c9 36 96 3d
       0.020781718 0.066721655 0.0604716 0.07334668
000110 0d 71 a3 3d bc 48 da 3c 59 c7 ab 3d b0 ca 8d bb
       0.07980547 0.02664601 0.08387632 -0.0043271407
000120 f8 5c 1b bc e4 0d d8 3c aa e7 5c 3d 02 76 ef bc
       -0.009482615 0.026373811 0.05393187 -0.029231075
000130 ae 10 5c 3d 67 cf 0c bd 58 7c 72 bd d0 10 83 bc
       0.053726844 -0.03437748 -0.059200615 -0.015999228
000140 13 9b 89 3d 8a f1 58 bd ca 50 61 3d 68 b4 3d bc
       0.06719031 -0.052964725 0.055008687 -0.011578657
000150 fd 53 84 3d 85 fc 86 3d d8 b1 01 3d d8 46 1d bc
       0.06461332 0.06591133 0.031663746 -0.00959941
000160 69 f7 85 3d 81 82 15 bd f1 58 9e 3d c5 fa 9a 3d
       0.0654133 -0.03650141 0.07731808 0.07567362
000170 18 cf be bc 9f 87 8e 3d ad 64 3e bd 82 6c 72 3d
       -0.02329211 0.069594614 -0.04648273 0.059185512
000180 48 47 5a bd ea b2 ff bc 00 6d d6 b9 58 92 45 3c
       -0.053290635 -0.031213243 -0.00040898472 0.012058817
000190 ff 02 98 bd 48 d0 ac 3c 4d 3b a2 3d fe 08 32 3d
       -0.074224465 0.02109541 0.07921467 0.043465607
0001a0 82 45 61 3d fc 43 ff 3c 86 3e 76 bd ba 9f 2b 3d
       0.05499793 0.031160347 -0.06011822 0.041900374
0001b0 5a df 29 bd 21 ac 10 bd 11 f2 88 3d 40 d5 f3 bc
       -0.04147277 -0.035320405 0.066867955 -0.029764771
0001c0 4d 82 a7 3d ae 18 df bc 74 70 8c 3c c0 51 b4 3b
       0.0817915 -0.027233448 0.017143466 0.0055029094
0001d0 ad ff 13 bd e2 66 63 3d a7 32 64 bd 54 51 12 bd
       -0.036132503 0.05551804 -0.05571237 -0.03572209
0001e0 94 64 9a bd b9 ba 67 bd 14 54 60 bd 76 b7 9c bd
       -0.07538715 -0.056574557 -0.054767683 -0.0765218
0001f0 b8 e5 84 3c 72 58 50 3d 8f 0b 9d 3d f8 4f 27 bc
       0.01622282 0.050865598 0.0766822 -0.010211937

graphs.0.batchnorm2.weight f4 [128]
000000 fc ad a4 3e a6 3b 4b 3f f4 11 b4 3d 51 9b ab 3e
       0.3216399 0.7938789 0.08792487 0.33516935
000010 4b 6d be 3e 82 35 2b 3f ee 9e 12 3f 1a 5a 48 3f
       0.3719276 0.6687852 0.5727376 0.78262484
000020 5d 78 43 3f b4 07 d1 3e 22 82 16 3f 8d 57 57 3f
       0.76355535 0.4082619 0.58792317 0.84117967
000030 2c 57 8c 3d 91 c0 c4 3e bd 2b 13 3f 3a 35 74 3f
       0.06852564 0.38428167 0.57488614 0.9539372
000040 66 2d d7 3e 1c bd ff 3e e0 69 8f 3e 62 3d 29 3e
       0.42026824 0.49948967 0.28010464 0.16527322
000050 99 50 3d 3d 7d de bd 3e b2 22 46 3f 50 35 8b 3d
       0.046219442 0.37083808 0.7739669 0.06797278
000060 60 b5 3b 3f 08 7f 3c 3f a9 dd 9e 3e c5 0e d4 3d
       0.7332363 0.73631334 0.31028488 0.103543796
000070 cd 4b d6 3e 94 8c 39 3e 44 ff 4d 3f 85 7c 0a 3f
       0.41854706 0.18120033 0.8046763 0.5409625
000080 3d 91 55 3f fa 23 45 3f f0 6f 76 3d 4d 26 94 3e
       0.8342474 0.7700802 0.060165346 0.2893547
000090 06 f5 1e 3f 20 f3 2d 3f 01 76 65 3f e4 39 77 3e
       0.62092626 0.67949104 0.89633185 0.24143177
0000a0 41 cf 6c 3f 0f ed 4e 3e 5b 00 63 3f 61 b3 b6 3e
       0.92503744 0.20207618 0.8867242 0.3568373
0000b0 6d 6f 1c 3f 29 68 ed 3e 78 32 15 3e 12 06 2f 3f
       0.6110752 0.4636853 0.14570034 0.6836864
0000c0 d1 bb 02 3c a0 1a b7 3e 1c 1b 11 3f c9 46 69 3e
       0.007979349 0.357625 0.5668199 0.22780909
0000d0 eb 44 02 3f 2b 11 28 3f 86 86 2a 3f ec ea 57 3f
       0.5088641 0.65651196 0.66611516 0.8434284
0000e0 b3 ef 60 3f 7c 5a 10 3f 34 10 fb 3d 32 8f ee 3e
       0.8786575 0.5638807 0.1225895 0.46593624
0000f0 bf db 2b 3f 23 d7 e0 3e 47 a3 72 3e 26 55 78 3e
       0.6713218 0.43914136 0.23695098 0.24251232
000100 3e 42 18 3f c6 cf 0f 3f 1b 9f 5e 3f c8 cc 5d 3f
       0.5947608 0.5617641 0.86961526 0.86640596
000110 6a 25 f6 3e bf 25 a6 3d 33 d0 70 3f 69 23 74 3f
       0.4807542 0.08112668 0.94067687 0.9536653
000120 e4 74 41 3e 71 e3 15 3f 00 af 0f 3f 4d 6a e0 3e
       0.18892246 0.58550173 0.56126404 0.438311
000130 26 95 09 3e cb af 20 3e bc 4d 85 3d 74 0e af 3e
       0.13435802 0.1569206 0.06508967 0.34190714
000140 64 3e 0f 3f 4c 3d 67 3f a3 a2 1e 3f 0d 02 8d 3e
       0.55954576 0.90327907 0.61966914 0.27540627
000150 3c 34 c7 3d 9e b8 08 3f 21 7d 7f 3d 7f 6e d0 3e
       0.0972676 0.53406703 0.06237519 0.40709302
000160 42 5a 6d 3e 35 68 e8 3e 0b 4f 0e 3f eb 19 3e 3f
       0.23178962 0.45392004 0.5558936 0.742583
000170 22 d4 40 3f 32 56 e4 3e ee c4 f6 3e 3f bb 4a 3e
       0.7532369 0.44597012 0.4819712 0.19797991
000180 6f ad 68 3f 02 51 0f 3f 08 1e de 3e 8b c6 e2 3e
       0.9088964 0.55982983 0.43382287 0.442921
000190 cc 06 53 3f 97 02 09 3f f0 2f 7c 3f d7 ec 30 3f
       0.82432246 0.53519577 0.98510647 0.6911139
0001a0 53 5c 7a 3f 04 3a 66 3f 41 3c 1f 3f b9 31 07 3f
       0.97797126 0.89932275 0.62201315 0.52810246
0001b0 12 14 5f 3f 35 98 39 3f 5c e6 60 3f fd d9 02 3e
       0.8714 0.72497874 0.878515 0.12778468
0001c0 56 69 fb 3d 67 d7 8e 3e e1 70 f0 3e b7 35 71 3f
       0.122759506 0.27898714 0.4696112 0.9422259
0001d0 eb 5f bd 3d e8 c5 84 3e c1 dd ac 3d 73 22 aa 3e
       0.092468105 0.2593224 0.08440734 0.33229408
0001e0 71 a2 a8 3c ca 4a 5c 3f c3 86 09 3f d2 bd 6e 3f
       0.02058527 0.8605162 0.53721255 0.9325839
0001f0 14 97 fb 3e c5 9a b0 3c ae f8 1c 3e 28 14 a4 3e
       0.491387 0.021558175 0.15329239 0.32046628

graphs.0.batchnorm2.bias f4 [128]
000000 62 07 ae b8 d3 a7 c1 37 e9 4d 0d 38 95 cc 62 38
       -8.298342e-05 2.3085542e-05 3.368958e-05 5.407313e-05
000010 61 37 54 b7 f8 90 cb 38 6d 68 bd b8 65 da f7 38
       -1.2649079e-05 9.706797e-05 -9.031673e-05 0.00011818557
000020 31 b0 b3 b9 c9 50 16 39 7f b9 8e b7 4a 7a d3 38
       -0.00034272813 0.0001433521 -1.7014097e-05 0.00010084042
000030 b8 22 7e 37 ef a4 8b b6 ac 63 97 39 a2 8e 2b b6
       1.5147663e-05 -4.1617236e-06 0.00028875226 -2.556401e-06
000040 98 aa 1c 39 14 7c fc b8 ff fa 82 39 7c e2 1f 39
       0.0001494087 -0.00012039408 0.0002498254 0.00015247794
000050 dd e9 b5 37 15 22 62 b8 c7 ae da b7 f6 57 73 37
       2.1685782e-05 -5.391434e-05 -2.6069012e-05 1.4504409e-05
000060 31 82 da b8 9b 75 06 39 e7 a9 65 37 e0 66 b2 b4
       -0.000104193 0.00012823047 1.3689022e-05 -3.3229935e-07
000070 b2 68 2c b8 6e e7 12 38 b9 59 f0 38 35 fe e0 37
       -4.11055e-05 3.502465e-05 0.00011460804 2.6821255e-05
000080 34 17 3c b5 52 25 ad b7 0b 0f e7 36 b9 94 93 b7
       -7.006922e-07 -2.0640586e-05 6.8860877e-06 -1.759302e-05
000090 b0 21 22 3a 9e ce 9a b8 8a 21 23 38 1b 1b 9c 37
       0.00061848294 -7.381778e-05 3.8893464e-05 1.8609271e-05
0000a0 3d e6 a1 36 3f d7 9d b8 85 7a b8 b5 8f 08 a7 b7
       4.824977e-06 -7.526436e-05 -1.3744726e-06 -1.9911937e-05
0000b0 6e f7 81 37 66 40 a2 b8 70 8b 82 37 38 60 96 38
       1.5493217e-05 -7.736757e-05 1.5562138e-05 7.1704795e-05
0000c0 0c 6d bf b6 29 1f 29 37 2b 1b 17 39 2e ff df b7
       -5.7049383e-06 1.008044e-05 0.00014410603 -2.6702499e-05
0000d0 6a cf 89 b8 a4 a3 30 b8 e7 7e 0b b8 16 77 93 37
       -6.571303e-05 -4.2114072e-05 -3.325837e-05 1.757922e-05
0000e0 b1 07 db 38 6a d2 61 b9 da 40 1b 39 8c 2e 19 3a
       0.000104441664 -0.00021536057 0.00014806111 0.0005843423
0000f0 87 05 ae b7 31 63 0a 38 76 9b a6 38 6d 63 d6 37
       -2.074499e-05 3.2994143e-05 7.944454e-05 2.5557087e-05
000100 b9 eb da 38 8f 81 d5 b6 1b 60 08 b7 96 7e e2 b7
       0.00010438957 -6.3629773e-06 -8.128608e-06 -2.7000246e-05
000110 75 b5 2b b7 b6 db 4c 36 a0 84 0d 39 81 33 c3 b7
       -1.0234643e-05 3.0526257e-06 0.00013496215 -2.3269795e-05
000120 81 06 32 38 65 07 79 b9 8f fa 91 b8 03 a2 b0 36
       4.2444564e-05 -0.00023749245 -6.960809e-05 5.2640694e-06
000130 22 5e 0a 37 c4 47 64 b6 f4 89 ee 36 1e a6 d6 b7
       8.247358e-06 -3.401642e-06 7.1090126e-06 -2.5588142e-05
000140 6f 25 1d b9 23 9a 86 39 aa 2c 24 37 0e ba d1 b8
       -0.00014986632 0.00025673312 9.785561e-06 -0.00010000552
000150 db 39 e2 37 46 2d 81 35 71 14 07 36 35 d5 29 38
       2.696824e-05 9.624425e-07 2.0128466e-06 4.0491304e-05
000160 05 f4 40 38 e5 cd 4d b8 2f be bb 34 2e b3 15 b8
       4.6003628e-05 -4.9067563e-05 3.496984e-07 -3.5691242e-05
000170 92 95 8c 37 4d 98 f8 37 b9 12 c7 b8 88 f0 a9 b7
       1.675895e-05 2.9634824e-05 -9.492547e-05 -2.0258376e-05
000180 f0 6a 5e b8 b7 c6 80 37 58 ac a8 37 a0 7c d1 b6
       -5.3028518e-05 1.5351323e-05 2.0107414e-05 -6.2431936e-06
000190 d0 63 bf b9 ac 23 92 38 ce a6 3f 37 8d ac 83 38
       -0.00036504725 6.968467e-05 1.1423324e-05 6.278707e-05
0001a0 24 07 9f 35 07 94 ea b7 2b 7c c4 37 c8 62 8c b7
       1.1848501e-06 -2.7963904e-05 2.3422841e-05 -1.67353e-05
0001b0 b5 e9 d9 37 0d 4b 8d 38 c5 14 1c b7 de 8b 53 38
       2.5977244e-05 6.737383e-05 -9.30316e-06 5.043658e-05
0001c0 5d 89 ee 35 03 b2 e9 37 e9 a4 c0 b9 64 e6 46 39
       1.777236e-06 2.7858658e-05 -0.0003674396 0.00018968579
0001d0 d3 04 0f b7 97 b3 9f 38 c1 cc 33 37 65 1d 44 b6
       -8.524587e-06 7.615162e-05 1.0716904e-05 -2.9223386e-06
0001e0 18 df 12 b5 e0 74 a6 39 c2 59 6a b9 68 ea e6 b9
       -5.471388e-07 0.00031749066 -0.00022349416 -0.00044043665
0001f0 26 ed 9d 38 66 6b 19 b5 69 6f 32 b7 39 f6 14 b7
       7.530516e-05 -5.7153227e-07 -1.06355665e-05 -8.878816e-06

graphs.0.batchnorm2.running_mean f4 [128]
000000 10 0c 82 3e ce 8c c7 bd 1c 8d fa bd 09 9d ae 3d
       0.25399828 -0.09743653 -0.12233946 0.08526046
000010 6f bc 0b 3c e3 a6 7d bb 01 9a 4e be 4c f0 06 be
       0.008528813 -0.0038704209 -0.20175935 -0.13177603
000020 9a 30 d6 bd 5c 9b 95 3d fc 86 07 3d c0 46 bc 3d
       -0.10458489 0.07305023 0.033087716 0.09193182
000030 46 14 a6 3d a6 00 3a 3e 40 e6 28 3e 0d e3 5c be
       0.081093356 0.1816431 0.16494083 -0.21570988
000040 8f 8a 0c 3e 65 00 1d be 0c d0 c8 bd f9 03 30 3c
       0.13724731 -0.15332182 -0.09805307 0.010743135
000050 05 17 b6 3d 99 05 2e 3e a4 28 55 3d f0 8c 7c 3e
       0.088911094 0.16994323 0.05204071 0.24663138
000060 13 ba bd 3d 1b 5b a4 bb a7 52 92 bb 90 ab 32 bd
       0.092640065 -0.0050157434 -0.0044654193 -0.043620646
000070 d3 cd b1 bd 56 10 36 be 77 d3 16 bd b0 79 7b 3c
       -0.08681836 -0.17779669 -0.036822762 0.015348837
000080 20 48 3a bd 3e 20 02 3d c9 54 dd bd 19 5e 43 3c
       -0.04547894 0.03176903 -0.10807187 0.01192429
000090 6b cb 23 bd f5 c1 82 3e 87 5a 1c 3e 32 5d da 3c
       -0.039988916 0.25538602 0.15268908 0.026655767
0000a0 7f 18 15 bd 8c b4 a2 3b e2 9f 2e bd 9d 3e d6 3d
       -0.036400314 0.0049653705 -0.042632945 0.10461161
0000b0 fe 48 0c 3e 2b f9 39 be 68 ef 4c 3e 9e e8 55 3e
       0.1369972 -0.18161456 0.20013201 0.20889518
0000c0 1e 2a 86 be eb 47 73 bd 15 74 ec bd 75 d0 b9 3c
       -0.26204008 -0.05939476 -0.115455784 0.022682408
0000d0 b2 7f e3 3d 23 e4 43 3e 83 6f 9d bd f3 34 47 be
       0.1110834 0.19129996 -0.07687285 -0.19453792
0000e0 02 79 e7 bd 52 de 5c be 6d be df bd c4 fc 40 3d
       -0.11302377 -0.21569183 -0.10924993 0.047116056
0000f0 d0 4f 47 3d 25 e4 c7 3a 12 16 89 3e 74 71 5c be
       0.0486601 0.0015250487 0.2677465 -0.21527654
000100 88 69 2a 3e 04 69 38 3d ea 1f 3f 3d a6 c9 e5 bd
       0.1664182 0.045022026 0.046661295 -0.11220102
000110 37 1b 47 3e f5 33 4d be 6a b4 13 3e ba 54 fe bc
       0.19443975 -0.20039351 0.14424291 -0.03104626
000120 8c ce 1d 3d e1 0f 23 be 36 98 cb 3d 14 ae e5 bd
       0.038527057 -0.15924026 0.09941141 -0.112148434
000130 db 68 18 be 06 a2 dc 3d 3f cd 8d 3d 86 a4 92 3d
       -0.14883749 0.10773091 0.06923913 0.071602866
000140 b7 96 6d 3e ec e2 31 bb 4b c5 dd 3d c6 cf 1e 3e
       0.23202024 -0.0027143313 0.10828646 0.15508947
000150 88 d2 98 bd aa e5 41 3d 55 67 51 3c 80 df 78 bd
       -0.07462031 0.047338165 0.012780984 -0.06076002
000160 97 b1 00 3e 29 34 b7 bc 98 d3 59 bd 30 47 26 3e
       0.12567745 -0.02236374 -0.053180307 0.16238093
000170 cc 06 a5 bd 84 1c 73 bd a5 38 8b 3d ce 1f 34 3e
       -0.08057937 -0.059353366 0.067979135 0.17590258
000180 aa 56 d3 3d e0 e8 13 bd e9 19 f3 bc 8d 6c 81 bd
       0.10319264 -0.03611076 -0.02967544 -0.063195325
000190 5f 32 09 bd e2 ff 0e 3e 3a 7c c4 bd 60 bc c4 bd
       -0.033495303 0.13964799 -0.09594007 -0.09606242
0001a0 71 2e 64 3e b6 3e 33 3e 2d 5e 26 be f4 e9 08 3e
       0.22283341 0.17504391 -0.16246863 0.13370496
0001b0 15 79 03 3c bb 81 03 be 3f 7e 71 bb d8 ce 94 3d
       0.008024474 -0.12842457 -0.003684893 0.07266015
0001c0 6a 66 1d 3e 9e d8 01 be 50 12 b3 3c 71 89 c6 bc
       0.15371099 -0.12680289 0.021859318 -0.024235459
0001d0 5a a2 e5 bd 56 6b 1b 3e a7 1a 7b be ae 4d 85 bd
       -0.11212607 0.15177664 -0.24521886 -0.06508957
0001e0 d7 ad db bc b7 13 83 3d 4c f0 0e be c0 e1 fb bc
       -0.026816292 0.06400245 -0.13958853 -0.030747294
0001f0 46 4d e8 3d 98 5a 44 3d c0 a3 9c 3d 36 6e 83 bd
       0.11342864 0.04793796 0.0764842 -0.064175054

graphs.0.batchnorm2.running_var f4 [128]
000000 0f 17 a8 3b c6 bd 87 3c 4c 30 96 3b 4b 96 0a 3d
       0.005129702 0.016569983 0.004583394 0.033834737
000010 37 6c d6 3c 59 c1 c5 3c a3 bf 94 3b ec bd 21 3d
       0.026174648 0.024140047 0.0045394464 0.039487764
000020 db 34 57 3c 59 e3 97 3c d0 0f 9a 3d e8 e5 d8 3b
       0.01313516 0.018541025 0.07522547 0.006619204
000030 a0 af 91 3c 57 72 3d 3c 01 fb 62 3b 63 d6 5b 3c
       0.01778394 0.011562905 0.0034634473 0.013417813
000040 cd 38 ab 3b d4 37 95 3b 1a 20 48 3c 15 cb 46 3c
       0.005225277 0.0045537744 0.012214685 0.0121333795
000050 4a 78 b6 3b 60 8f 26 3d 79 e4 87 3c 4f 5d 36 3d
       0.005568539 0.040664077 0.016588436 0.04452258
000060 5f b9 58 3c 9a 3e 00 3d 6e fd 24 3c 60 62 1d 3c
       0.01322779 0.0313097 0.010070188 0.009605974
000070 9a 54 a0 3b 4a 2a f9 3b 57 82 0a 3c 81 c5 c9 3c
       0.004892898 0.007603918 0.008453927 0.02463031
000080 20 89 19 3d 9e ba 93 3b 1c 46 47 3c 03 a7 ad 3a
       0.03748429 0.0045083305 0.0121627115 0.0013248626
000090 d8 75 55 3b 48 53 a4 3c 8c d4 29 3c da f5 6e 3b
       0.003257146 0.020059243 0.0103656165 0.0036462457
0000a0 43 0d 8a 3b 7c eb f9 3b 33 76 63 3c 1c 61 98 3c
       0.0042130067 0.007626949 0.013883161 0.018600993
0000b0 15 f7 38 3c 71 03 07 3c 28 ba d3 3c 27 b2 96 3c
       0.011289378 0.008240567 0.025845602 0.018395497
0000c0 2f 9f b4 3c 13 1a f0 3b 2b dc bc 3b a4 01 27 3b
       0.02204856 0.007327327 0.0057635508 0.0025483156
0000d0 c0 07 e2 3b cf 13 17 3c 07 3e 5b 3c 73 cc 46 3c
       0.0068978965 0.009221031 0.013381488 0.012133705
0000e0 ac c4 62 3c 6c e2 3c 3d 50 34 1d 3d 1d 1a be 3c
       0.013840836 0.04611437 0.038379967 0.023205811
0000f0 0a 04 55 3d 62 20 b8 3c 43 b7 21 3c 6d d5 cb 3c
       0.052005805 0.022476379 0.009870353 0.024882043
000100 be d6 87 3c 6b f8 97 3c 46 cc c5 3c 58 26 06 3d
       0.01658189 0.018551072 0.024145257 0.03275141
000110 24 e1 76 3b 06 32 bc 3b 42 7a ac 3c 69 2a ca 3c
       0.0037670815 0.005743268 0.02105439 0.024678426
000120 e9 67 97 3b 65 a8 16 3b c2 8f 04 3d a9 fc 20 3c
       0.0046205414 0.0022988555 0.03236366 0.009825864
000130 49 74 4e 3d 5a 7a 45 3c 71 ba b0 3b 22 16 8e 3b
       0.050403867 0.012053097 0.0053933193 0.0043361345
000140 04 83 07 3c cb 79 38 3b b9 84 4f 3c ed 85 7e 3c
       0.008270983 0.0028148766 0.012665921 0.01553486
000150 87 4b 57 3c bc 48 9d 3c e3 d9 48 3d df bd fc 3b
       0.013140566 0.019199722 0.049035918 0.007713064
000160 19 44 31 3c 5f 29 eb 3b 39 91 00 3c de b2 85 3b
       0.010819458 0.0071765627 0.007847124 0.0040801605
000170 16 22 6c 3c 99 24 4d 3c b7 bb 3f 3c 40 1c d2 3b
       0.014412424 0.012520933 0.01170247 0.006412059
000180 0e 7f 8f 3c 6a 38 29 3c d7 03 77 3c 70 2e 9f 3b
       0.01751664 0.010328392 0.015076599 0.0048578307
000190 f5 33 52 3d 87 b4 73 3b a8 89 96 3c c1 c6 00 3c
       0.05131908 0.003718646 0.018376186 0.007859887
0001a0 a3 29 bf 3b 1d 52 e1 3c 98 90 a1 3c e8 20 2c 3c
       0.005833821 0.027504975 0.019722268 0.010505892
0001b0 68 11 07 3c f6 14 b5 3c 22 e9 cd 3c f3 85 ce 3b
       0.008243896 0.022104722 0.02513558 0.006302589
0001c0 9e ce af 3c 2f 26 83 3b 9d 05 df 3b eb 35 7b 3c
       0.021460827 0.0040023546 0.006806089 0.015332679
0001d0 c5 e5 17 3c 82 6a a2 3b 45 39 82 3c 6e 4f 27 3c
       0.00927109 0.0049565444 0.015896449 0.010211809
0001e0 60 d6 4f 3c 44 94 11 3c 75 83 12 3c 15 d6 3e 3b
       0.012685388 0.008885447 0.008942475 0.0029119302
0001f0 eb 29 1d 3c f4 8d 96 3b 31 2b 0f 3d 2c d5 bf 3b
       0.009592514 0.004594559 0.0349533 0.0058542695

graphs.0.batchnorm1.weight f4 [64]
000000 c9 3f 9d 3e 3f cf b3 3d ce 25 82 3e 62 b1 0b 3e
       0.30712727 0.087797634 0.25419468 0.13641885
000010 84 30 1c 3d 55 da e4 3e 49 0b 89 3e 8d f1 6b 3f
       0.038132206 0.44697824 0.26766422 0.9216545
000020 8e 0c 24 3f b6 95 51 3e 74 bd ab 3e 05 03 29 3e
       0.64081657 0.20467266 0.3354298 0.16505058
000030 a1 ed 52 3f d6 91 93 3c aa 2b ef 3e fb b6 3c 3e
       0.8239384 0.018013876 0.46713 0.18429177
000040 9e dc ff 3e 25 d4 68 3f 2c 56 03 3f ba 2d 29 3f
       0.49973005 0.90948707 0.5130336 0.660854
000050 bc 6b 22 3e 8f 3d 05 3f b1 2a 9d 3e 2d cc 74 3f
       0.1586141 0.52047056 0.30696633 0.9562405
000060 18 45 8b 3e 02 be 4f 3e 97 a7 0c 3d 55 58 bd 3d
       0.27201152 0.20287326 0.034339514 0.092453636
000070 0b d7 b7 3e 29 0b 03 3f 70 83 f0 3e d7 4d 62 3e
       0.35906252 0.51188904 0.4697528 0.22100006
000080 69 a9 ee 3e e2 85 34 3d 3a b6 70 3d cb 79 a4 3d
       0.46613625 0.044072993 0.058767535 0.08031043
000090 dd 88 e4 3e 5b 00 32 3f 72 fc 03 3e e2 bd 33 3e
       0.44635668 0.6953179 0.12889269 0.17552903
0000a0 05 98 53 3f 70 39 7d 3f b1 49 56 3e 4b c4 3c 3e
       0.8265384 0.9891577 0.20926549 0.18434255
0000b0 a0 f5 62 3f 32 0a 1a 3f 44 eb 5b 3e 71 f9 71 3f
       0.88656044 0.60171807 0.21476465 0.9452124
0000c0 de 45 7d 3f 63 48 4e 3e c2 74 5d 3f b5 e1 45 3f
       0.98934734 0.20144801 0.86506283 0.77297527
0000d0 e8 fe c3 3e 62 75 50 3f bc eb 99 3e b3 73 84 3e
       0.38280416 0.8142911 0.30062664 0.25869521
0000e0 34 c7 20 3f 80 a2 57 3f 48 83 31 3f cc 42 68 3f
       0.6280396 0.8423233 0.69340944 0.90726924
0000f0 5e 16 73 3e 02 f3 4b 3e 90 e0 2e 3e 94 af d7 3e
       0.23739001 0.19916919 0.17077851 0.42126143

graphs.0.batchnorm1.bias f4 [64]
000000 b3 c2 f1 b4 66 43 21 ba 7f 95 0e b9 41 90 4c b8
       -4.503141e-07 -0.0006151706 -0.00013597867 -4.8771737e-05
000010 6d 36 17 ba c2 b4 84 b9 11 95 85 39 e1 57 d3 ba
       -0.0005768303 -0.00025311677 0.000254788 -0.0016124212
000020 fa 29 f2 b8 be c0 86 38 46 74 a3 b9 ce 3b 1c ba
       -0.00011547278 6.425519e-05 -0.00031176413 -0.00059598393
000030 ab 9b 94 3a 2f 33 0d b9 83 be 59 b9 5b 3c 20 ba
       0.0011337897 -0.00013465875 -0.00020765704 -0.0006112509
000040 cb 10 f7 ba 47 97 8e b8 f3 58 82 39 34 ca 35 b9
       -0.0018849609 -6.799265e-05 0.00024861805 -0.00017336832
000050 5d c2 99 3a a2 c5 f0 b8 c1 69 3d ba 98 c8 19 3a
       0.0011730898 -0.00011480904 -0.00072255364 0.00058663776
000060 97 35 61 ba d3 79 3c 39 e8 d5 83 ba 72 1d 0a ba
       -0.00085910544 0.0001797446 -0.0010058256 -0.000526867
000070 7a f5 be b9 65 63 ab b8 a9 13 3c b9 79 e3 03 bb
       -0.00036422518 -8.172429e-05 -0.00017936401 -0.0020124598
000080 da 8b 98 b8 fb b4 80 ba 5f 18 1d 3a 05 b6 d9 39
       -7.273974e-05 -0.0009819561 0.0005992706 0.0004152508
000090 38 f3 1b b9 17 67 36 b8 05 0f 1e ba 3e bc bf 38
       -0.00014872558 -4.348819e-05 -0.000602946 9.1426526e-05
0000a0 1b 87 9e ba c7 29 2d ba be ed f3 ba b6 bb 89 39
       -0.0012094708 -0.00066056516 -0.0018610281 0.00026270532
0000b0 38 ca e2 b9 da 3d 9b 3a 1b ad 0b ba 57 f5 eb b7
       -0.00043256744 0.0011843995 -0.0005328224 -2.8128428e-05
0000c0 d5 6e 00 ba d5 71 02 3b ae 82 6c 3a e2 90 0e ba
       -0.0004899328 0.0019904275 0.00090221583 -0.00054384593
0000d0 d2 aa 8c b7 43 91 20 39 58 f1 c7 b9 2c 6c 2b 39
       -1.6768845e-05 0.00015312903 -0.00038136053 0.00016348128
0000e0 d1 32 47 39 08 e2 1a ba 79 ae b1 ba 5b b6 3c b9
       0.0001899705 -0.0005908315 -0.0013556025 -0.0001799701
0000f0 d9 ef d0 b9 98 a4 3e 38 27 80 06 b9 d1 fc e1 b9
       -0.00039851552 4.545282e-05 -0.00012826976 -0.00043103707

graphs.0.batchnorm1.running_mean f4 [64]
000000 32 44 9c 3f d3 55 ad 3f b6 6d a9 3f 62 f4 9c 3f
       1.2208312 1.3541816 1.3236606 1.226208
000010 44 d4 a3 3f 3b e5 98 3f ea ba af 3f 99 ab cf 3f
       1.2799153 1.1944956 1.3728917 1.6224242
000020 ff be 93 3f 75 05 a0 3f 76 18 b0 3f 99 d4 93 3f
       1.1542662 1.2501665 1.3757465 1.1549255
000030 11 80 97 3f 50 93 99 3f e7 19 98 3f 1f d4 9d 3f
       1.1835958 1.1998081 1.1882905 1.2330359
000040 ca 50 9d 3f ab 18 b7 3f 01 d6 a4 3f 48 2b 99 3f
       1.229028 1.4304403 1.2877809 1.1966333
000050 dc 83 97 3f e9 bf a6 3f 32 51 98 3f d1 46 9b 3f
       1.1837115 1.3027316 1.1899779 1.2130986
000060 8b 57 94 3f 25 cc 95 3f fa 9e 9c 3f 36 82 a6 3f
       1.1589216 1.1702925 1.2236016 1.3008487
000070 5a 99 a8 3f 7a ad a0 3f 30 05 a8 3f ad e2 94 3f
       1.3171799 1.2552941 1.3126583 1.1631676
000080 f7 84 b1 3f 09 ce 9a 3f 8a b3 9d 3f 66 e6 9d 3f
       1.3868703 1.2094127 1.2320416 1.2335937
000090 fd dd aa 3f 73 11 a5 3f 2a b2 c1 3f 9b 77 a8 3f
       1.3348995 1.289595 1.5132496 1.3161501
0000a0 1a 0c bf 3f bc b3 b2 3f cb 8b b4 3f 39 db 9b 3f
       1.4925568 1.39611 1.4105161 1.2176276
0000b0 64 52 be 3f e6 6f 9b 3f 40 a6 a5 3f a3 fb 97 3f
       1.4868894 1.2143524 1.294136 1.1873668
0000c0 99 c0 97 3f 75 cf 9c 3f 06 a0 9f 3f 60 af af 3f
       1.1855651 1.2250811 1.247071 1.3725395
0000d0 7d 4f 97 3f 53 35 99 3f d8 f9 99 3f cc 57 a0 3f
       1.1821133 1.1969398 1.2029371 1.2526793
0000e0 cb 84 99 3f e8 55 98 3f ce 32 9c 3f 6b 71 a1 3f
       1.199365 1.1901217 1.2203004 1.2612737
0000f0 0d 2d aa 3f 64 3a 97 3f 0c 1d 99 3f 68 3c 99 3f
       1.3294998 1.1814694 1.1961989 1.197156

graphs.0.batchnorm1.running_var f4 [64]
000000 9f 43 a6 3d d7 ce 0b 3f a1 8d 88 3e 7a 8c 5d 3e
       0.081183665 0.5461249 0.26670554 0.21635619
000010 fc fc 51 3e 62 88 b9 3d aa 5b 60 3e 4c 07 92 3f
       0.20506662 0.09059216 0.21909967 1.1408477
000020 c6 30 c7 3d d9 84 de 3d 39 a3 5b 3e e0 0e 25 3e
       0.097261 0.108651824 0.21448983 0.16118956
000030 45 42 11 3d 2f fd ff 3d 6f 12 cf 3d a7 e7 be 3e
       0.03546359 0.12499463 0.10110938 0.37286112
000040 01 d0 6e 3e 6e 0d 27 3f bf f1 30 3e 05 aa 81 3d
       0.23321535 0.6525487 0.17279719 0.06331257
000050 6a 10 15 3d 66 1e 67 3e 22 e6 0b 3e 45 18 9c 3d
       0.036392607 0.2257019 0.13662007 0.076218165
000060 e3 03 82 3d 1a bb 34 3e bd cc aa 3d 7a f7 a7 3e
       0.063483976 0.17649499 0.08339832 0.32805997
000070 c3 cc e8 3e 67 9c 97 3e e9 f3 f8 3e 81 d4 6d 3d
       0.4546872 0.29611513 0.4862359 0.058063988
000080 e9 59 f8 3e 90 a1 a2 3e c2 0a 46 3e 7f 6e 05 3e
       0.48506096 0.31763887 0.19340041 0.13030432
000090 79 36 4e 3e 28 b4 d0 3e 8f d1 f1 3f a9 c9 7e 3e
       0.20137967 0.40762448 1.8892077 0.24881615
0000a0 4c 93 6a 3f 52 66 4f 3f 69 80 f0 3e d2 2b 48 3e
       0.9163101 0.81015503 0.4697297 0.19547966
0000b0 4e 25 06 3f 1a 24 57 3d 21 7c c2 3e a4 43 df 3d
       0.5240067 0.052524664 0.37985328 0.10901573
0000c0 f1 25 1e 3d 7d 5b eb 3d 63 a9 a2 3e 61 93 04 3f
       0.038610402 0.114920594 0.31769857 0.5178738
0000d0 c3 eb aa 3d 2f d6 0a 3e 34 6c 3c 3e 85 26 b8 3e
       0.08345749 0.13558267 0.18400651 0.35966888
0000e0 d5 be 6b 3e e9 77 08 3e f2 56 35 3e 6d db 41 3e
       0.23022015 0.13326992 0.17708948 0.1893136
0000f0 8b f0 43 3e 6a 0a 98 3d 1d 69 5b 3d 37 64 a7 3d
       0.19134729 0.07423861 0.05356704 0.08173411

graphs.1.pass_msg.weight f4 [128, 130]
000000 b1 5c 67 bc e1 e8 0e 3d ce c2 7e 3d c2 ca c0 bc
       -0.01412122 0.03489006 0.0621975 -0.023534182
000010 58 5f d4 3c cb fd 0a bc 2e 14 3b 3c 6c 9a b1 bd
       0.02592437 -0.0084833605 0.011418385 -0.08672032
000020 e6 fd 6b bd e5 e8 12 bc e8 9c 2f 3d 1f 15 05 3d
       -0.057615183 -0.008966659 0.042874247 0.032490846
000030 50 31 3e bb f6 5a 29 bd bb de 59 3d 09 d1 b8 3c
       -0.0029021092 -0.041346513 0.053190928 0.022560613
000040 58 9e df 3b ce e6 ab 3d ed b2 23 3d 2b 3f 6c 3d
       0.006824296 0.08393632 0.03996556 0.05767743
000050 5e 54 87 bd 57 16 3a 3d 54 51 a5 3d 17 28 79 bd
       -0.06607889 0.04543146 0.08072153 -0.06082925
000060 b8 dd f6 3c 19 73 34 3d 5d ef ad bc 2d 0f 92 bd
       0.03013502 0.04405508 -0.021232301 -0.07131801
000070 0d 2b ea 3c ab 3c e5 bc 8e 82 a5 bd 5e d2 c4 3c
       0.028584981 -0.02798303 -0.08081542 0.024026092
000080 2c c0 1e 3d aa b2 57 bd c9 e8 62 3d 85 ec 1c 3d
       0.038757488 -0.05266062 0.055397782 0.0383115
000090 25 5b 04 3c 72 d3 72 bd 32 25 81 3d 4b d2 34 3d
       0.008078371 -0.05928368 0.063059226 0.044145864
0000a0 35 74 ac bc 91 26 cb bc 4f 3c 89 3d ea 8b 3f 3d
       -0.021051506 -0.024798663 0.06700956 0.04676429
0000b0 7b e7 8a bd da e1 ab bd c4 74 10 3d 1e c4 8a bd
       -0.06782433 -0.08392687 0.035267606 -0.06775688
0000c0 2c 82 85 3c 82 9e ac bd 58 a2 e8 3c ec 89 38 3d
       0.016297422 -0.084286705 0.028397724 0.045053408
0000d0 ad 60 0d 3c ab 63 9f ba 98 ea 9e bd 3e 5d 83 3d
       0.008629006 -0.0012160441 -0.07759589 0.06414269
0000e0 c3 33 27 3c 2b 0c 88 bd c5 ac 22 bd b0 eb af 3d
       0.010205212 -0.06642946 -0.039715547 0.08589876
0000f0 2f 0f 27 bd ba 51 24 bd a2 3a 29 bd 0c 75 ef 3c
       -0.040785965 -0.040117003 -0.041315682 0.029230617
000100 9a 57 0f 3c d2 62 a7 3c c6 54 97 3d 7f 10 81 ba
       0.008748913 0.020432863 0.07389216 -0.0009846835
000110 97 ab 60 3d 66 91 93 3d d0 ef 7e bd ca ac ac bc
       0.05485114 0.07205467 -0.06224042 -0.021078486
000120 cd c5 92 3d dd f3 52 bd 55 00 67 3d da 38 7c bd
       0.07166634 -0.051502097 0.0563968 -0.061577655
000130 e3 e3 98 bd 03 43 ea bc 50 14 15 3d ae 99 28 3c
       -0.07465341 -0.028596407 0.036396325 0.010290546
000140 88 28 c5 bc b2 fe 33 3d 88 fc 21 bd 47 d2 d4 3b
       -0.024067178 0.04394407 -0.039547473 0.0064947936
000150 51 68 8c bd 41 18 37 3d dc af 68 bd c3 46 5f bc
       -0.06855834 0.044700865 -0.056808338 -0.013627711
000160 90 2a a5 bd e0 3f dd bb 09 63 49 bc dc e0 00 3d
       -0.08064759 -0.0067519993 -0.012291678 0.031464443
000170 9e d6 34 bd f5 15 94 3d 4c 7e a4 3d 37 b3 8f 3d
       -0.044149987 0.072307505 0.08031902 0.070166044
000180 4f 79 fa 3c b1 ec 6e bd d5 2b 4a 3d a1 16 0a 3d
       0.030575423 -0.058331195 0.049358208 0.033712987
000190 46 b0 9b 3d 7e 2c a3 3d e8 c4 8e bd ea a5 5b 3d
       0.07601981 0.079674706 -0.06971151 0.053625025
0001a0 d3 9c de bb 13 34 b0 bc de f8 2c bd 72 dc a0 bc
       -0.0067935972 -0.021509206 -0.042229526 -0.019636367
0001b0 fe 72 37 bc 2c e2 40 bd 5e 70 56 bd a7 2d 42 3d
       -0.01119685 -0.047090694 -0.052353255 0.04740682
0001c0 39 08 3c bb e9 0c 97 bd 2b fd 2f bd 2f e8 9b bd
       -0.0028691425 -0.07375509 -0.04296605 -0.07612645
0001d0 13 99 93 bd 1f d1 21 3c 5d d0 6f 3d 30 db 8d 3d
       -0.07206931 0.0098765185 0.05854832 0.06926572
0001e0 10 5e 03 bd 2b 8d 21 bd 36 e3 9a bd 87 77 bd bc
       -0.032072127 -0.03944127 -0.07562868 -0.023128284
0001f0 92 82 5d 3d 1c 66 32 3d 3d 62 66 3c bc ab ab bd
       0.0540796 0.04355441 0.014061508 -0.08382365
000200 ac 3f 8e bd bd 27 7d 3d cb 52 c2 bc a9 ae 34 3d
       -0.06945738 0.061805476 -0.02372112 0.04411188
000210 d8 27 9a bd 6e 16 bc 3c 94 07 87 3d 9b d8 6e 3d
       -0.07527131 0.022959914 0.06593242 0.05831204
000220 4d 47 08 bd ce 40 77 bd 74 b0 b4 3d bc 9d 00 3d
       -0.033271123 -0.060364537 0.08822718 0.031400427
000230 cf 33 0e bd 6e b8 67 3d d2 e7 14 bd f6 9a 8d bd
       -0.034717377 0.05657237 -0.036353894 -0.06914322
000240 5d ba a3 3c 70 8d 87 bd 61 28 8e 3d 9c be 41 bd
       0.019986326 -0.06618774 0.069412954 -0.04730092
000250 a5 86 be bc f2 10 49 3c 83 43 28 3d 81 1b 3b bd
       -0.023257563 0.0122721065 0.04108001 -0.045680527
000260 46 0e 2f 3d 7d b5 a8 bd 47 f3 4c 3c fc 75 30 3d
       0.04273822 -0.08237741 0.012509174 0.04308127
000270 c4 eb a6 3d 0b 43 46 bd 7a 7a a7 3c 95 8e a8 bd
       0.081504375 -0.04840378 0.020444144 -0.0823032
000280 a9 55 8e 3d 38 f1 cf bc d7 ab 1f 3d 59 34 d1 bc
       0.06949932 -0.025383577 0.03898224 -0.025537657
000290 5f bb 84 bd e5 69 84 3d a6 f4 97 bc d0 f2 0c 3d
       -0.06481051 0.0646551 -0.018549275 0.03441125
0002a0 de 11 97 bd 89 e0 d9 3c 75 8b 1e 3d b6 72 7e 3b
       -0.07376455 0.026596325 0.038707215 0.0038825697
0002b0 d8 15 41 3c 4d cb 83 3d 9e 4c e5 bc 77 f4 60 3d
       0.011784993 0.06435261 -0.027990635 0.05492064
0002c0 90 ef aa 3c c9 62 32 3c f6 9c f4 bc c1 d3 9b bd
       0.020866185 0.01088781 -0.029860001 -0.07608748
0002d0 7a 5d f3 3c 45 af 2a bd 34 cb 18 bd 10 30 9e bc
       0.029707659 -0.041671056 -0.037303165 -0.019310027
0002e0 be 50 fc 3a 2f cc a7 3c 9a 45 a9 bd 3d 49 92 3a
       0.0019250137 0.020483105 -0.082652286 0.0011160743
0002f0 55 e8 45 3d d1 83 5d 3d 44 54 2d 3d 57 ce 78 bd
       0.048317272 0.054080788 0.04231669 -0.060743656
000300 9f 7c 88 3d 9e b6 f8 3c 1a 3a 69 bd 42 71 88 3d
       0.066643946 0.030360516 -0.056940176 0.06662227
000310 43 75 a0 bd 1b 4d 1e 3c 4c 20 97 bc 33 56 89 3d
       -0.07834866 0.009661938 -0.018448018 0.06705894
000320 bb dc 56 3d ca fd 67 3c 90 32 25 3d 9a d5 9d 3b
       0.0524566 0.014159629 0.040331423 0.004816723
000330 21 5d 5c 3d 4c 65 32 bc 38 74 12 bd 47 9e 8e bd
       0.053799752 -0.010888409 -0.035755366 -0.06963783
000340 c1 64 3f bd 21 b7 0a 3d 86 3f af bd 61 35 12 bd
       -0.046726946 0.03386605 -0.08557038 -0.035695437
000350 b0 3b 43 3d 03 59 7f bd f2 6c 8f bb 81 0b 85 bd
       0.047664344 -0.062340748 -0.004377001 -0.06496335
000360 01 70 f9 3c a8 f1 8d bc 22 7e d5 bc 93 b3 4c 3d
       0.030448915 -0.017327145 -0.026061121 0.049975943
000370 fe c1 46 bc a4 67 11 3d aa 2b 72 3d 87 ec 83 bc
       -0.012131212 0.03549923 0.059123673 -0.016103996
000380 3e 3f 65 3d d5 c5 2b bc 9f 8b 43 3d 84 af 6a 3d
       0.055968516 -0.010484179 0.047740575 0.05729629
000390 d8 50 35 3d ac c4 e3 3c 36 7b 01 3c 61 62 b2 bd
       0.04426655 0.027803741 0.007902911 -0.087101705
0003a0 14 72 ce bc bb d0 1c bd 8c 20 81 3d 43 8c af bd
       -0.025200881 -0.038285 0.06305036 -0.08571675
0003b0 81 7d cd 3c bb c5 75 3d 4b b9 4d 3d d6 5f 6d 3d
       0.025084259 0.060003024 0.050225537 0.057952724
0003c0 8f c0 cb bc 27 17 4c 3d 2f 53 77 3d 5f 9e 69 3c
       -0.024872093 0.049826767 0.060382064 0.01425895
0003d0 29 4f 5f bd 55 22 a6 3d 35 65 05 bd 5b 83 a7 bd
       -0.054518852 0.08112017 -0.03256722 -0.08179351
0003e0 35 a7 a5 bd 09 0b f0 3c 4e 03 14 3d a5 05 50 bc
       -0.08088533 0.029302137 0.036135964 -0.012696658
0003f0 80 24 b2 3d 7d 35 33 3d 3a 4a b2 3d e6 57 da bc
       0.08698368 0.043752182 0.08705564 -0.026653241
